models/cora-model-jigsaw-embedding-corruption.pth (torch, 498030 bytes, 27 tensors)

node_emb.weight f4 [71, 64]
00000000: bf92 d83e 43da 69bf a607 d7bf 81c6 cfbe
00000010: 5981 de3f 1bca 1e3f f9b9 12bf 5d98 d7be
00000020: d4a4 943f 0eb2 4b3f ee0f a8bf fc4d 8abf
00000030: 198c d4bf b41a dd3e 7bc5 cd3f ef9a d8bf
00000040: 6040 97be 0271 7dbf 1d12 a1bf 3063 013f
00000050: 4fc4 3cbf 1893 b93f b8e8 cfbf 86ef d2bd
00000060: 40a5 cabf bae5 f8bf da54 1cbf 2f6a c2bf
00000070: 2e8c 993e 3a51 80bf dfb2 463f 0aa2 693e
00000080: 1c34 04bf f4bd f73e 8eed 2c3e 97dd 643f
00000090: c713 003f 9a1b f8be 870f 2e3e 93df 5f3f
000000a0: 3dcc e9be f10a 99bf 4b6f 9dbf ce9e c9bf
000000b0: 8d98 513e 48b7 fd3f d12d 6b3c bfbf 643f
000000c0: 6d04 933f 6380 6fbf c8a1 2d3f 517a 193e
000000d0: d651 ca3e 9885 d6bf ceaf 0a40 9408 53bf
000000e0: b7be 44bf 1453 263f b513 313f aebc 97bf
000000f0: 6ad8 073e 3a41 2b3f 9662 d53e b582 1cbf
00000100: 3371 e7be 228a ce3e 5cfa 003f 4f0a b5bf
00000110: 27cf 84bf befb babf e2b3 483f 3736 e73e
00000120: c6c5 d5bf e93d 87bf 37a8 5abd 6434 f53f
00000130: 49c2 153f 5d7f 89be 0430 2fbf 0546 d13f
00000140: 9e44 ae3f 60fa 54bf f236 9fbf 4581 e0be
00000150: e7e9 acbf dd9d 703f 94a8 973e c4c1 293f
00000160: d6e3 d63e 24d3 f4bd 198d cb3e 88cf 4f3f
00000170: 0aae 61bf 649e 19c0 d006 b43f ebb2 e1be
00000180: 408e 12bf b68f 9f3f fefb 5a3f 5dbb ea3f
00000190: 13f8 70bf 1d4b a03f b039 95be 3c08 3a40
000001a0: e618 9d3e 5fc2 74bf b253 c43f 721f 44bf
000001b0: 34ed a8be ed74 3f3d 7963 b4bf d3e2 203f
000001c0: 290b 13be fd30 4b3f deb5 a13e f574 013f
000001d0: f520 93bf 6b4e 2a3f ec14 db3e f5ce 05be
000001e0: 6a88 f1bf bfb5 46bf f8b1 bebe 2d7c 7f3d
000001f0: 5f4d dd3d b279 09bf 5435 2abf 569c c83f
00000200: 9c37 0fc0 c41b b13d e721 88be 3050 983e
00000210: 4fe3 41bd bde0 663f 7bb2 0abf a451 003f
00000220: 7b7a 683f 8515 7fbe 168a d33f 2566 dbbf
00000230: c179 abbe dade 073f d283 153f 1721 debd
00000240: cf60 85be ed76 463f dd48 d6bc cea8 503f
00000250: f46f 75bf 53c0 0d3f 4014 c43e d5e2 60bf
00000260: 04a0 aabf 1a26 56bf 4d6a 2640 2dd2 6d3e
00000270: 6b2d f33e 2b83 dabb bb12 9e3f ad26 80be
00000280: 13b8 eb3d f70a 24bf 2a49 b43e c195 943d
00000290: d989 efbd 009d e6bf bf91 1b3f ddb0 3cbf
000002a0: 3574 1d3f 36c4 eb3c c044 60bf 70d9 cdbf
000002b0: 1d77 5c3f 196c c53f dc21 dcbc 21a1 c23f
000002c0: 40d4 78bf f449 803f 24a1 cf3e 7172 b9be
000002d0: 350c 60bf 210d 343f d1c6 80be 1f42 4abf
000002e0: 624e aabf 8be4 e83f 6929 c33f 939e 34bf
000002f0: 372e 0ebe 6444 d2bf 8345 623e 8792 233f
00000300: afed 83bf c8b5 8fbf c30e d83f be16 ccbf
00000310: 5aea 603f 674a 893f 63b1 933e 0f31 913f
00000320: 8d6f 05c0 31ee 51bf f015 0a3f b10b 41bf
00000330: d0c7 a0bf ed29 0d3d 7e43 eb3d f0b2 bf39
00000340: ab95 5dbe 5b7b 33c0 eb9d e2be d6dd a3bf
00000350: d14c bbbf f6f7 de3e ad84 0b40 c9ed 6a3e
00000360: ea8b ae3f 0b75 71bf f5cd 0c40 c26e a0be
00000370: 3329 38bf 9513 aebf 45c2 5e3f 9f4c 3440
00000380: d952 e13c f684 b93e b3e5 a63e 205e 2c3f
00000390: 0d30 4a3f 5a97 f0bd 8f76 62bf 31a5 97bf
000003a0: 0a56 00bf d254 343f cc61 82bf 933b 8d3d
000003b0: d33a ad3e 2fae 833e 1bc7 953f 827f 2b3e
000003c0: c9a1 593f 8646 0d3f bd83 0bc0 b0f1 5b3e
000003d0: 2b54 a0bf 2f2a 4c3f 7772 8d3e 27fa e33f
000003e0: 6758 4b3f a207 333f ce9f dfbe eaa1 173f
000003f0: df63 63be 86d7 463f 0f98 82bf 5cae 8c3e
0.42299458 -0.91348666 -1.6799209 -0.40581134 1.7383224 0.6202714 -0.5731502 -0.4210843
1.1612802 0.79568565 -1.3129861 -1.0805049 -1.6605254 0.43184435 1.6075891 -1.6922282
-0.29541302 -0.9900056 -1.2583653 0.50541973 -0.73737043 1.4498014 -1.6242895 -0.10299592
-1.583168 -1.9445107 -0.61066973 -1.5188655 0.2998976 -1.0024788 0.77616686 0.22815719
-0.5164201 0.4838711 0.16887495 0.8940062 0.5003018 -0.48458558 0.1699811 0.8745052
-0.45663634 -1.1956464 -1.2299589 -1.5751588 0.2046835 1.9821558 0.014354185 0.8935508
1.1485726 -0.9355528 0.67824984 0.14988066 0.3951556 -1.675952 2.1669803 -0.82434964
-0.7685351 0.6497052 0.69170696 -1.1854455 0.13266149 0.668964 0.41676778 -0.61136943
-0.45203552 0.40339762 0.5038202 -1.4143771 -1.0375718 -1.4608076 0.7839948 0.4515855
-1.6700981 -1.0565768 -0.05338308 1.9156613 0.5849958 -0.26854983 -0.6843264 1.6349493
1.361469 -0.8319454 -1.2438643 -0.43848625 -1.3508881 0.9399088 0.29620802 0.6631129
0.419707 -0.119543344 0.39756086 0.8117604 -0.8815619 -2.4002924 1.4064579 -0.44081816
-0.57248306 1.2465732 0.8554076 1.8338429 -0.9412853 1.2522923 -0.29145575 2.9067526
0.30683059 -0.95609087 1.5338042 -0.7661048 -0.32993472 0.04674237 -1.4092857 0.62846106
-0.14359726 0.79371625 0.31584066 0.5056909 -1.1494433 0.66525906 0.427894 -0.13067229
-1.8869755 -0.7762107 -0.37245154 0.062374283 0.10805773 -0.5370132 -0.6648762 1.567271
-2.2377691 0.08647874 -0.26588365 0.29748678 -0.04733592 0.90186673 -0.5417859 0.50124574
0.9081189 -0.24910553 1.6526515 -1.7140547 -0.33491328 0.5307442 0.58404267 -0.10846155
-0.26050422 0.77525216 -0.02615779 0.81507576 -0.9587395 0.5537159 0.382967 -0.8784612
-1.3330083 -0.8365189 2.600238 0.23224707 0.4749559 -0.0066684685 1.2349466 -0.25029507
0.11509719 -0.6407923 0.3521207 0.07255126 -0.11696214 -1.8016663 0.60769266 -0.7370737
0.6150544 0.028780084 -0.87604904 -1.6081982 0.8611925 1.5423614 -0.026871614 1.5205423
-0.9719887 1.0022569 0.40552628 -0.36220124 -0.87518626 0.70332533 -0.25151685 -0.7900714
-1.330517 1.8194746 1.5247012 -0.70554465 -0.13884817 -1.6427121 0.22096829 0.6389546
-1.030691 -1.122735 1.6879505 -1.594444 0.8785759 1.0725831 0.28846273 1.1343096
-2.0849335 -0.82004076 0.53939724 -0.75408465 -1.2560978 0.03446381 0.114874825 0.00036563678
-0.21639125 -2.804404 -0.44261107 -1.2802074 -1.4632818 0.43548554 2.179973 0.2294227
1.3636448 -0.9431922 2.2000706 -0.31334502 -0.71937865 -1.3599726 0.8701518 2.8171766
0.027505325 0.36234254 0.32597122 0.67331123 0.7897957 -0.11747618 -0.88462156 -1.1847287
-0.50131285 0.70441926 -1.0186095 0.068961285 0.33833942 0.2571883 1.1701387 0.16747859
0.8501249 0.55185735 -2.1799157 0.21478915 -1.2525686 0.7975187 0.27626392 1.7810715
0.79431766 0.6993352 -0.4367661 0.59231436 -0.22206067 0.7767261 -1.0202655 0.27476776

conv1.nn.0.weight f4 [128, 64]
00000000: 0e6a 23bd e531 163d 4513 47bd 9ffd 683d
00000010: 7059 463d 9c5f 5ebc 6f1d 93bc a4ec 813d
00000020: 449b 103c 8c4c f1bd 1a9b b2bd 7235 2cbd
00000030: e929 00bd b6d6 9bbc 7749 7b3c 4038 9abd
00000040: 76ec 5e3d b5ba 05bd 5b01 8b3d 8401 b1bc
00000050: 9844 b23d 4c83 b33d deb9 1d3d 7f7e 6f3d
00000060: a549 cabd 84b7 c2bc 5c4b a3bd d276 803b
00000070: f6d4 ac3d 7982 48bd 3870 cc3d 41cb d73d
00000080: 862b 64bc 6510 b0bd 1b23 7abc aa6e e5bd
00000090: 425b 2a3d 57ea 96bd d7c0 99bd 8f35 333c
000000a0: 7460 ae3d 6066 853c d09f f6bd 6c99 253d
000000b0: 6064 95bd 5084 823d f72d bf3c 01d9 623c
000000c0: 4162 a43d 7510 5fbd e9c4 9a3d 24d2 e03d
000000d0: 8ba9 a4bd f564 90bd 50d0 acbd 0b64 49bd
000000e0: ec48 bf3d 1b2c 863d 59cd 993d 657a da3d
000000f0: bc64 bdbd 0ce0 d03d ab32 1c3d aab9 a93d
00000100: 22da c73d 1687 5f3d c73c cdbd f28c 99bd
00000110: e50f 87bd 132c 793d 9f35 873d bd8e b7bd
00000120: ad7c 343c 57aa ec3d f373 e1bd dfc2 8cbd
00000130: 99ec c7bd 86fc 523c 2df2 fcbd 8a64 9f3d
00000140: 08cf d73d 7739 a53d 5cdc c5bd c61a c93d
00000150: 5118 b33c e5c9 babd 8801 c73d 4ef1 083d
00000160: f5a9 2d3d 6ce8 aebd c0d6 b33d 24b4 693d
00000170: fb4a a2bd 9b33 85ba b35f 89bd a0eb ac3d
00000180: f482 953d 3fcc adbd da1f c2bd f832 d53d
00000190: eef5 473d e373 773d 88b5 78bc 7d6e 113d
000001a0: f901 3a3d 9a1a 3fbd 88ed 9a3c 0cf8 02be
000001b0: 7316 b53b 88e7 a73d 3490 aa3d 8688 97bd
000001c0: c7a2 c2ba 99aa 4bbd 5484 eabd d80e a6bd
000001d0: 82cf c33d 0b63 0cbd 40e1 edbd c3ad b63d
000001e0: d8d3 a53d 09e9 573c 34f5 98ba c626 003e
000001f0: 274a a7bd e669 d03b 9f13 d9bd dc15 ddbd
00000200: ce1b 87bd 9b3b 4fbd 9702 273c 15fe f73b
00000210: 496c 2e3c 7bff 33bd 477f 0dbd 5353 2cbd
00000220: 8e40 ecbd 3a41 4dbc 9bf1 fbbd aaf6 9e3d
00000230: 8ca6 f23d 2272 c0bd f0c7 c93c 34b9 f8bd
00000240: f398 c93d 932d b5bd 8f74 123c 9737 d3bd
00000250: 4fb3 fe3c 983a 5ebd d4b3 6b3c 1681 40bd
00000260: 1929 d43d a971 5bbd b86a 16bd 54ef 24bd
00000270: b0e2 b73d 7dd3 eb3d 533a 933d f9e7 cf3d
00000280: 4a06 e5bd 135e d73d dbf5 e6bd 72a7 1abd
00000290: 6827 503d 2c77 033d 444b cb3d 98ab b0bd
000002a0: 20e0 6e3d 1bf3 ac3b 6550 853c 224b ee3d
000002b0: 838d 6e3d fc74 cf3d 8b4f 233c 5e31 db3d
000002c0: 17d3 293d 8e74 4ebc 62c5 9c3d 3a98 04be
000002d0: d28b 033d fc9b d1bd 1192 f6bc 0f7c db3a
000002e0: 0e3f 003e c93f 91bc b82b c63d 6cfc 75bd
000002f0: 10ff 9a3d f469 e2bd 6d0d 7cbd fb5b d53d
00000300: 77de 8b3d fd61 a2bd c36c f4bd aaf2 33bd
00000310: c0a3 a03d d432 62bd e742 413d 37de 8fbc
00000320: 38d8 ab3d 742f aabc a6c5 a8bd 5238 fd3d
00000330: eca8 e8bd 4836 00be d887 9c3d 6f17 b73c
00000340: ad8c ec3c 8ce6 bebd 5a30 133d a270 3dbd
00000350: 4b59 aebd a6a1 cebd 43e5 a93d 66e5 81bc
00000360: e970 d73c 9c28 e73d 2cf9 23bd f665 f1bd
00000370: edca 12bb 6c90 b13d fc12 d13d 80fc 903d
00000380: db79 cdbd 81e5 cf3d 85d7 e7bd 743d 1b3d
00000390: 0caa b0bd f17f 6d3d 16bf 38bd 881b e1bd
000003a0: 1ea8 c8bd 50e7 b13d 3132 b9bd dd67 6ebc
000003b0: bfab 863d cb36 e3bd 1c43 99bd 7321 923c
000003c0: 18ae 203d 5748 a43d 17ee bf3d b747 90bd
000003d0: 1d67 b33d b88f 97bd c195 44bd 124d b73d
000003e0: 59f1 d83d debf dbbc 45ea 98bd 8980 713d
000003f0: 8e69 123d b3f7 debb 55ea e1bc 7b42 e5bd
-0.039896064 0.036668677 -0.04860236 0.056882497 0.048425138 -0.0135726 -0.017958371 0.06343964
0.008826081 -0.11782178 -0.087209895 -0.042043157 -0.03128997 -0.01902328 0.01533734 -0.0753026
0.054424725 -0.03264876 0.06787368 -0.021607168 0.087044895 0.08765277 0.038507335 0.058470245
-0.09877328 -0.023769148 -0.07973358 0.0039204145 0.084390566 -0.048952553 0.099823415 0.105368145
-0.013926392 -0.08596877 -0.015267159 -0.11202748 0.041590936 -0.073689155 -0.075074844 0.010938062
0.08514491 0.016284168 -0.120422006 0.040429518 -0.07294536 0.06372893 0.023337347 0.013845683
0.08026553 -0.054459054 0.07557089 0.10977581 -0.0804015 -0.07050506 -0.0843817 -0.049167674
0.093400806 0.06551381 0.0750987 0.10667876 -0.09247729 0.101989836 0.03813426 0.08287366
0.097584024 0.054572187 -0.10021358 -0.07497586 -0.065948285 0.060833048 0.06602024 -0.08962772
0.011016053 0.11555927 -0.11008444 -0.06873106 -0.09761924 0.012877589 -0.12350879 0.07782848
0.10537535 0.08067601 -0.09661171 0.0981956 0.02186218 -0.091205396 0.09717089 0.03343325
0.04239841 -0.08540425 0.08781195 0.05705656 -0.07924458 -0.0010162474 -0.06707706 0.084433794
0.07300368 -0.084862225 -0.094787315 0.10410112 0.04881852 0.060413253 -0.015179999 0.03550576
0.045412038 -0.04665623 0.018912092 -0.12789935 0.005526358 0.08198458 0.08328286 -0.07399087
-0.0014849537 -0.04972324 -0.11451021 -0.081083 0.09561063 -0.034274142 -0.11615229 0.08919861
0.080970466 0.0131781185 -0.0011669756 0.12514791 -0.0816844 0.0063602803 -0.105994456 -0.10795185
-0.065971 -0.050593954 0.010193489 0.0075681307 0.010645934 -0.043944817 -0.03454521 -0.04207165
-0.1153575 -0.012527758 -0.12301942 0.07761891 0.118481725 -0.09396769 0.02463147 -0.121447
0.09843626 -0.08846583 0.008938923 -0.10313337 0.03109136 -0.054255098 0.014386136 -0.046998106
0.10359401 -0.05357519 -0.03672287 -0.040267304 0.08978784 0.115149476 0.07188859 0.10151667
-0.1118284 0.1051599 -0.11277362 -0.037757345 0.05081883 0.032096073 0.09926465 -0.08626479
0.05831921 0.005278004 0.016273687 0.11635424 0.058240425 0.10129735 0.009967695 0.107027754
0.041461077 -0.012601031 0.07654835 -0.12948695 0.032115765 -0.1023483 -0.030098947 0.0016745346
0.12524053 -0.01773061 0.096763074 -0.06005518 0.075681806 -0.11055365 -0.06153624 0.104179345
0.06829541 -0.07928846 -0.11934807 -0.043932594 0.07843733 -0.055224255 0.047182944 -0.017562015
0.0839085 -0.02077458 -0.082408234 0.12364258 -0.11360344 -0.12520707 0.07643098 0.022350041
0.028875673 -0.09321317 0.035934784 -0.046249993 -0.08513125 -0.10089426 0.08295681 -0.015856456
0.026298957 0.112870425 -0.04003255 -0.11787026 -0.0022398785 0.086701244 0.10208699 0.070794106
-0.10033008 0.10151196 -0.11320404 0.037900403 -0.08626184 0.057983343 -0.04510411 -0.10991579
-0.09797691 0.086866975 -0.090427764 -0.01455113 0.06575727 -0.11094435 -0.07483503 0.017838215
0.03922853 0.0802161 0.09371584 -0.070449285 0.08759902 -0.07400459 -0.04799438 0.08950247
0.105929084 -0.026824888 -0.07466558 0.05896047 0.035745196 -0.0068044304 -0.027577559 -0.11194321

conv1.nn.0.bias f4 [128]
00000000: de11 c3bd 3bd5 6d3d 4c9f 31bd b832 4b3d
00000010: ebb9 8bbd 2ceb 8ebd 11cc b4bc 93d5 a53d
00000020: bcee e33d 9ea2 69bc 5577 00bd e140 cc3d
00000030: 956d 483d 6d0e 0f3d 3ddf 36bc da11 75bc
00000040: 13eb 133d 6322 8a3d 2167 dc3d 4d8a 49bd
00000050: c452 263d 7a5c febc f0ec 8cbd caef a6bc
00000060: 11ea fa3c dcc9 9d3d 3a31 8c3d bad5 bbbc
00000070: 0b1f 7bbd 88d3 933d 52ba 3e3d df91 1f3c
00000080: ff2d 903c 6578 803d 3e91 193e dc1e 803c
00000090: 4866 b13d 423c 00bd d176 fa3d 7683 b4bd
000000a0: 553c 0f3e 1479 69ba 6db9 ba3d e13a 913d
000000b0: 9c5b 1b3e 8bb3 013e a104 1cbd f37a f9bc
000000c0: 7348 24bd 6600 03be b488 86bd f299 c1bd
000000d0: f1ff afbd bb6a 78bd 79c1 50bd 2d92 2bbd
000000e0: 7168 fbbd 68e4 d03d f02d b03d 0f1b adbd
000000f0: 8cb9 ba3d 790c 97bd 3dd2 0b3e 62b9 72bd
00000100: 48d1 773d 2806 89bd d27b c23c 06f2 b5bc
00000110: 13f4 fe3c cc16 cf3d b0cf 8d3d 483b bc3c
00000120: 3f3f c8bd f4ee 123e ad64 dc3c 0cc9 8b3b
00000130: 9a3b 0a3e 0574 5fbd 1064 47bd 070c 7b3d
00000140: a550 6cbd 4607 f53d 3baa 273e 0956 c53c
00000150: e23e 223d 1c4f 703d 3585 d33c d15a 023e
00000160: 866a 2b3d 43e8 ac3d 6611 c43d 7613 cebd
00000170: e1ae 023d 13c5 883d dcc3 103e d99b 3d3d
00000180: 6325 0c3e 6975 d53d a21f 863c 4ada 093d
00000190: eb36 813d 3001 083e ec2a c53d a049 e13b
000001a0: 0a3d 133e 3794 95bd 7f34 8abd 3bf3 68bd
000001b0: e2a8 f63d 0d35 d23d 8b7b 2a3c 0236 4d3d
000001c0: d222 f9bd ade9 163c 6e6a 45bd ac61 44bd
000001d0: a1be 333d 9d78 483d 782f 97bd 21c8 d9bc
000001e0: 30df adbd ad9d 05bd 7757 e3bc c4a0 a63d
000001f0: 4f77 cebc 18b5 bbbd c003 de3c c9b1 b0bc
-0.09524892 0.05806468 -0.043364808 0.049608916 -0.068225704 -0.06978449 -0.022069963 0.08097377
0.11129519 -0.014259962 -0.031363804 0.09973312 0.04893263 0.034925867 -0.011161623 -0.014957869
0.036112856 0.0674484 0.10761858 -0.04920416 0.040606275 -0.031049956 -0.0688113 -0.020378012
0.03062919 0.07704517 0.06845327 -0.022929061 -0.0613089 0.07218081 0.046564408 0.009739368
0.017600058 0.062729634 0.14996812 0.015639715 0.08662087 -0.031307466 0.12229694 -0.08814137
0.13987859 -0.00089062867 0.091173984 0.070913084 0.15171665 0.12666146 -0.038090352 -0.030454135
-0.040108155 -0.1279312 -0.06569043 -0.09453191 -0.08593739 -0.06064866 -0.05096576 -0.04188745
-0.1227578 0.10199815 0.08602512 -0.08452427 0.091174215 -0.07375426 0.13654418 -0.059258826
0.06050232 -0.06690627 0.023740683 -0.022210132 0.031122243 0.1011177 0.06924379 0.022977486
-0.09777688 0.14348966 0.026903475 0.00426591 0.13499299 -0.054554004 -0.04867941 0.061290767
-0.057694096 0.11964278 0.16373532 0.024088876 0.03961075 0.058669195 0.025820354 0.12729956
0.041849636 0.08442738 0.09573631 -0.10062306 0.03190506 0.06678214 0.14137214 0.046291206
0.13686137 0.10422785 0.016372506 0.033655442 0.06309303 0.13281703 0.09627327 0.006875232
0.14378753 -0.0730366 -0.06748294 -0.056872588 0.120439306 0.10264025 0.0104054315 0.050100334
-0.121648446 0.009210986 -0.048197202 -0.04794471 0.04388297 0.04894315 -0.07382101 -0.026584687
-0.08489835 -0.032621074 -0.027751667 0.08136132 -0.025203375 -0.091654 0.027101398 -0.02156915

conv1.nn.2.weight f4 [128, 128]
00000000: 16f8 9d3d 3eeb 3abd 2171 74bd 501b 36bd
00000010: 874e 323d 9f82 55bd d2fb 113d 600c 9dbd
00000020: a23a 763d e9c2 093d 964f b2bd 0320 993d
00000030: e5d7 0e3d d9d5 383d 7d2c 993d 68ad 4fbc
00000040: 7699 693d 73a4 853b ede9 6c3d f513 0ebd
00000050: 615c 273d 7eaa 86bd 08f6 043d 5d44 893c
00000060: 926d 773d d5de d43c 0e9d 863c 8eaa f23b
00000070: 8429 21bd f347 04bc 8aa5 72bd 38e6 8fbd
00000080: 1cc8 843c 9852 c33a 82a2 233d e5c6 e63c
00000090: 425c 623b 4163 b03b 3a6b 6abd 1963 b7bd
000000a0: f389 5a3d dcdb af3c c955 0fbd 2cc1 7fbd
000000b0: 0225 053d 9346 503c df88 5e3d 280a c5bc
000000c0: ed3f 953d befe 843c 8b68 df3c 0c25 923d
000000d0: e8c6 db3c af01 cabd e3b2 5bbc a0e5 93bd
000000e0: 5501 8f3d 036c d8bc 1bba 0ebd 6cfe 0fbd
000000f0: c783 463c f64f 943d ae47 e1bc b90e e4bc
00000100: 29e0 87bc 767c 6d3d 58bb 89bd 7275 8bbd
00000110: 0fa2 ad3d 36e8 a33d e7a1 793d eaa8 93bd
00000120: f4c4 2f3d cfa5 b8bd b231 64bd 5922 983c
00000130: e78f a9bd 9900 073d 020b 773d 886a 7a3d
00000140: c7ba 963d b373 b83d 322f 97bd ca3a 913d
00000150: 1be9 86bd 06d9 333c 9ad2 15bd 9a59 19bd
00000160: e09d 703d 934a 29bd 5b17 b13d f80f a1bc
00000170: 5ef4 8fbd b30e 1c3d 14a4 973d e249 d93b
00000180: 51f2 21bd 277b 86bc 8a1b 0dbb 7f7e 673d
00000190: f977 65bd 75c1 993d 1c2a dc3c 321f 23bd
000001a0: 425a 3ebd 05ce f63c 0b14 6c3d cbd9 acbd
000001b0: e6d9 913d f2ae 873d cf3a 95bd 8b13 02bd
000001c0: 1ec5 9f3d 2aa3 783c c9bb 4cbd 52ad 05bd
000001d0: 09c9 653d 2cfb 373d 4877 09bc 7804 603d
000001e0: 2e40 683d 135a acbb c963 a73d 04b2 07bd
000001f0: c2d3 d43b bec6 a5bd e8cf 0c3d 9a8b 5c3c
00000200: 8dcc 3c3c 2e84 ffbc be81 eabc 8add afbd
00000210: 1475 393c 0c6a 4ebd a312 edba 7ac2 c6bc
00000220: d774 daba fdd9 973c e456 e6bb f109 9b3c
00000230: cac2 00bb 30a2 183d 7b7e 99bd 051d 6cbd
00000240: ae1d d23c f1f5 64bd 5cf8 d4bb 39b7 a2bb
00000250: b6d7 753d 771c fd3c 2a8d b83c 9279 6ebd
00000260: a731 0b3d a4c5 803d d70c 83bc 7f3e 83bd
00000270: 7761 a83d c028 bc3c 0c92 93bd eb46 e5bb
00000280: 4c8b 5c3d cb72 8abc f760 2a3d f2e9 a7bd
00000290: ccf5 e0bb ad01 e43b 5ae7 a8bc 5f34 023d
000002a0: 48c0 bf3d 0b75 263d 42f1 0bbd fcae 18bd
000002b0: d24c 43bd ee05 0ebd 88e8 a2bd a9a2 e3bc
000002c0: 4ea7 7e3d 397a 50bd 598b c83c 9ed5 a23c
000002d0: 79f7 80bd bff1 ac3d 3c01 923d dc9f 8a3c
000002e0: 63dd 27bd 60ac 5ebd 6443 953d 78c1 9f3d
000002f0: 5455 863d a846 a9bd fe44 87bd f10d b9bc
00000300: a71e 0ebd ca6b a83c 5f1d 543d 7138 8fbd
00000310: 86ad a0bb 1ded bd3d a61f b53d 98c8 7b3c
00000320: 6809 683d 5982 26bd 8afb 00bd 54a5 5dbd
00000330: 4f66 a23d 9ced a2bd 658a 1ebc b153 b6bd
00000340: ec97 c53d a06a 86bd 2588 683d 8936 2c3d
00000350: d9e7 2e3d e582 5a3d f2cd 26bb a807 56bd
00000360: e501 473c e292 9f3c fc3d 7dbd aeaf 123d
00000370: 0ba7 ee3c 2377 283d 6abc 85bd 3c4e 5dbd
00000380: 8495 c23d 8a1a 59bd 6bc5 34bc 53ad 7dbb
00000390: 744c 5cbd 6c77 eebc 3311 273c bd84 85bd
000003a0: 1ca4 9abc e5f0 79bd 80dc 53bd c50a bd3d
000003b0: 70ed b33b 081e 2cbb b900 273d 83fa 8d3d
000003c0: e0b1 a43d 9278 b73d e589 563d 56e8 aa3d
000003d0: 1eb0 9abd fb13 f33c 5e8d f8bc 31a8 47bd
000003e0: 6dde 1a3d 51d4 a9bc 996e 67bd ed72 d8bc
000003f0: e640 6a3d 9586 4bbd dfad 8abd c6d7 253d
0.07713334 -0.0456345 -0.0596782 -0.04445964 0.04353192 -0.052126523 0.035640545 -0.07668376
0.06011451 0.033633146 -0.08706586 0.07476809 0.03487386 0.045125816 0.074791886 -0.012675621
0.057031117 0.0040784418 0.057840277 -0.034687 0.040859584 -0.065754876 0.032461196 0.016756231
0.06040723 0.02598516 0.016432311 0.0074055856 -0.039346233 -0.008073795 -0.0592399 -0.070263326
0.0162087 0.0014901934 0.0399499 0.028171012 0.0034539853 0.0053829257 -0.057231165 -0.08954448
0.053354215 0.021467142 -0.03499392 -0.062440082 0.032505997 0.012712139 0.05432975 -0.024052694
0.072875835 0.016234752 0.02727153 0.071359724 0.026828244 -0.09863602 -0.013409349 -0.07221532
0.06982676 -0.026418692 -0.034845453 -0.035154745 0.012116379 0.07241814 -0.0275 -0.027839052
-0.01658638 0.057980023 -0.06725186 -0.0680951 0.08478176 0.08003275 0.060945418 -0.07209952
0.04291244 -0.090160005 -0.055711456 0.018571066 -0.082794 0.032959554 0.060313232 0.061136752
0.07359844 0.09006443 -0.07382049 0.07091291 -0.0658743 0.010977035 -0.0365778 -0.037438966
0.05874431 -0.041330885 0.08647033 -0.019660935 -0.07029031 0.038099956 0.07404342 0.006631122
-0.03953773 -0.016416145 -0.0021531307 0.05651712 -0.056022618 0.07507602 0.026875548 -0.039824672
-0.046472795 0.030127535 0.057636302 -0.08439978 0.07121639 0.06625165 -0.072866075 -0.03175692
0.07801269 0.01517562 -0.049983773 -0.032635994 0.056099925 0.04491727 -0.008390255 0.05469176
0.05670183 -0.005259761 0.081733294 -0.033128753 0.00649497 -0.08094548 0.034377962 0.013461018
0.011523378 -0.031190958 -0.028626319 -0.08587177 0.0113194175 -0.050394103 -0.0018087219 -0.024262656
-0.0016666901 0.018536562 -0.007029401 0.018925639 -0.0019647353 0.03726405 -0.07494827 -0.057644863
0.025648918 -0.05589861 -0.0064993333 -0.0049656895 0.06002017 0.030897362 0.02252825 -0.058221407
0.0339829 0.06287697 -0.015997333 -0.064084046 0.08221715 0.02296865 -0.072055906 -0.0069969795
0.05384378 -0.01690044 0.04159638 -0.081989184 -0.006865239 0.0069582076 -0.02061813 0.031788226
0.093628466 0.040638965 -0.03416563 -0.037276253 -0.047680683 -0.034673624 -0.07954508 -0.027787523
0.062171273 -0.05089781 0.024480509 0.019877251 -0.06297202 0.08444547 0.07129142 0.01692193
-0.040982615 -0.05436361 0.07288244 0.07800573 0.06559244 -0.0826543 -0.06604956 -0.022589656
-0.0346972 0.02055921 0.051785823 -0.06993187 -0.004903498 0.092737414 0.08843927 0.0153676495
0.056649595 -0.040651653 -0.031489886 -0.054112747 0.0792967 -0.07955477 -0.0096765505 -0.089026816
0.096481174 -0.06563306 0.056770463 0.042044196 0.042701576 0.053347487 -0.0025452343 -0.052253395
0.012146448 0.019479219 -0.06182669 0.035812072 0.029132387 0.041129243 -0.06530078 -0.05402969
0.09501174 -0.053003825 -0.011033396 -0.0038708046 -0.05378385 -0.02910968 0.010196972 -0.065194584
-0.018877082 -0.06102075 -0.051723957 0.0923057 0.0054909512 -0.0026263017 0.040772174 0.06932547
0.080417395 0.08958544 0.0523776 0.08345096 -0.07553123 0.029672613 -0.030340847 -0.048744384
0.037809778 -0.020731123 -0.05650196 -0.026421988 0.0571908 -0.049688894 -0.067714445 0.04048898

conv1.nn.2.bias f4 [128]
00000000: b72d 71b9 c974 54bd 50c8 a5bb eee2 463c
00000010: ee8e 2ebd 79db ad3c 8604 803d 091c 91bc
00000020: ee1e 76ba 99ff 86bd bb9a 1b3d 7edf 083d
00000030: ac40 ad3c 9daa da3b 8804 5abc 2a41 443d
00000040: 7bd1 c5bd f96d 783d 90f3 8b3d 94a5 3c3d
00000050: 4360 4d3d f26c fd3c e9bc 453d 54bd 9dbd
00000060: e221 8b3d 5b3b 853d 9d1a c8bc 3033 18bd
00000070: 7e4d bfbc e30b 2cbc 163e 0fbd b760 9d3d
00000080: 70ed 92bd 87d9 da3c 6de1 a8bc 4604 263d
00000090: abd5 a73d b161 913c 465b 86bc 0aa3 7b3d
000000a0: de56 85bc 5bc5 6cbc e170 96bd 8d32 d2bc
000000b0: 0bc8 17bd fccb a8bd c463 093d 4096 673d
000000c0: a05a 62bd 38f1 253d 6b3e d7bc b214 a5bd
000000d0: 8fa6 57bd 3bd2 d9bb 71d2 163c 992c 25bb
000000e0: 19eb 8cbd bde5 0bbd ac75 edbc 5b03 49bc
000000f0: c87b 87bc 2ef2 3a3d 4d80 863d 061d 943c
00000100: d1de 683d 3a65 32bd 04ae 443d 30e0 93bd
00000110: f50c 9a3d 3342 30bc feaa de3c 9576 57bd
00000120: 7552 5f3d a23a 773d 3f4d 8b3c ee8e 8bbd
00000130: bada 5dbd c414 2b3d 22d7 6bbd e5ab 353c
00000140: c433 a1bc 9dae 4ebb 3955 a0bd 74ea 2c3d
00000150: 0230 303d b3f6 a9bb 0704 a3bd d12c 8dbd
00000160: d0d7 5c3d 0706 72bd f8c3 c53c e3a7 b93c
00000170: 9f41 f9bc 719d cc3c cf65 82bd 09a3 85bd
00000180: c3ae 4a3d 1691 243d 0c50 e1bc feb1 ae3d
00000190: f865 463c b195 833b 9667 c93c 51ce 9d3c
000001a0: 9b84 cb3a a4ab 97bd 81b9 95bd e116 c3bc
000001b0: 0944 9a3d 449b 613d 4508 033d 9826 26bd
000001c0: fa01 8ebc 28cb 93bd bb7f 483d 87a7 82bc
000001d0: 28d8 e23c d66f dbbc 2af9 5b3d f6f3 ce3c
000001e0: 5cea 753d 39e9 84bd ca56 6d3d 8a58 af3b
000001f0: ddc6 783d cc73 d1bc ca79 f73c fd0c c0bb
-0.00023000581 -0.051869188 -0.0050592795 0.012139065 -0.042616777 0.021222817 0.06250863 -0.017713564
-0.0009388764 -0.0659172 0.03798936 0.033416264 0.021149002 0.0066731707 -0.013306744 0.047913708
-0.09659096 0.060651753 0.06833565 0.046056345 0.05014063 0.030935738 0.048275862 -0.07702127
0.06793572 0.06505462 -0.024426753 -0.03715819 -0.02335238 -0.010500881 -0.03497132 0.076844625
-0.07174194 0.026715053 -0.020615304 0.04053142 0.08195051 0.017746778 -0.016400944 0.061434783
-0.016276773 -0.01445135 -0.07345749 -0.02565887 -0.03705601 -0.08242032 0.03354241 0.056539774
-0.055262208 0.040513247 -0.02627488 -0.08060588 -0.052649077 -0.006647376 0.009205447 -0.0025203584
-0.06880779 -0.034154642 -0.028986774 -0.012268866 -0.016538516 0.045641117 0.0656744 0.018080246
0.05685312 -0.04355357 0.048017517 -0.07220495 0.075220026 -0.010757971 0.027181145 -0.052603323
0.054521997 0.06035865 0.017004607 -0.06814371 -0.054163672 0.04176785 -0.057578214 0.011088346
-0.019678004 -0.0031537183 -0.07828755 0.04221578 0.043014534 -0.0051868795 -0.079597525 -0.06893314
0.053916752 -0.05908778 0.024141297 0.022663062 -0.030426798 0.024977418 -0.06367075 -0.06525237
0.049483072 0.040177427 -0.02750399 0.08530043 0.012109272 0.0040156473 0.024585526 0.019263418
0.001552719 -0.07405785 -0.07310773 -0.02381462 0.07532508 0.055079713 0.03199031 -0.04056415
-0.017334927 -0.07216483 0.04894994 -0.015949024 0.027690962 -0.026786726 0.05370442 0.025262814
0.060037956 -0.06489796 0.057944097 0.005351131 0.060736526 -0.025567912 0.03020944 -0.0058609233

bn1.weight f4 [128]
00000000: a431 7f3f 96df 7f3f c66f 803f cb93 803f
00000010: 40a3 7f3f e94e 813f b7d2 823f 6871 7b3f
00000020: 0dfb 803f e354 803f 5184 833f b237 803f
00000030: 9253 7f3f c8a8 813f 431f 803f a8cd 7f3f
00000040: eb48 843f b2d0 803f 357b 813f b087 813f
00000050: 0512 803f 8a52 833f 09bf 813f f6e3 813f
00000060: 611c 813f c316 813f 93c5 803f 594d 7f3f
00000070: 3e84 803f b9f8 803f d30f 803f 5aa1 803f
00000080: 1488 803f f179 7e3f 946a 813f 764f 803f
00000090: 3b66 803f edd6 7e3f 9d36 803f e5c7 7e3f
000000a0: 10fb 7e3f 7283 833f 0bab 803f 77c3 813f
000000b0: 2889 813f 9958 803f c5f9 813f 0a62 823f
000000c0: 69c5 7f3f 7e6f 813f c744 813f ad8b 7f3f
000000d0: e0bf 7d3f 1ad4 7e3f 5679 813f 9c36 813f
000000e0: c5be 803f 4c9f 803f b3ec 803f b0b6 803f
000000f0: fabc 7e3f f967 813f a13e 803f 04ae 813f
00000100: 0a90 813f f6cb 803f f729 833f f566 813f
00000110: 9c88 833f 3bc9 7f3f 3400 813f 8b83 813f
00000120: 15fe 813f 5f93 7e3f 5006 813f a60a 7e3f
00000130: dbfc 7e3f cdf8 7f3f 3b9f 833f 3899 7e3f
00000140: cd06 823f 190a 833f cd89 803f 1770 803f
00000150: 7db4 803f 1e93 7f3f f867 823f 8844 803f
00000160: 839c 813f 734e 803f 8444 803f 8edf 813f
00000170: 815d 823f 90a1 813f b939 7f3f 618f 803f
00000180: 73a2 813f d539 823f 7c9e 803f 2b99 813f
00000190: 3076 813f b3cb 813f de25 823f 6749 823f
000001a0: ed4e 803f b36e 803f 5aac 823f 56f3 803f
000001b0: ecfa 833f e905 813f c4d6 803f f9ec 813f
000001c0: 5229 823f 1521 803f 1168 813f cb93 803f
000001d0: 205e 803f 239a 813f ab0e 803f 61b6 823f
000001e0: 39a8 813f 33ff 7f3f 4295 833f 2c02 7f3f
000001f0: f8e0 803f 3573 803f 16ab 823f d506 833f
0.9968512 0.9995054 1.003411 1.0045103 0.99858475 1.0102206 1.0220555 0.9821992
1.0076615 1.0025905 1.0274755 1.0016997 0.99736893 1.0129633 1.000954 0.9992318
1.0334753 1.0063689 1.0115725 1.0119534 1.0005499 1.0259564 1.0136424 1.0147693
1.0086786 1.0085071 1.0060295 0.997274 1.0040357 1.0075904 1.0004829 1.004924
1.0041528 0.9940482 1.011065 1.002425 1.0031198 0.995467 1.0016667 0.99523765
0.9960184 1.0274489 1.0052198 1.0137776 1.0119982 1.0027038 1.0154349 1.0186169
0.999106 1.011215 1.0099114 0.99822503 0.99120903 0.9954239 1.0115154 1.009479
1.0058218 1.0048614 1.0072235 1.0055752 0.99507105 1.0109855 1.0019113 1.013123
1.0122082 1.0062244 1.0247182 1.0109545 1.0276065 0.9991643 1.0078187 1.0118269
1.0155665 0.9944362 1.0080051 0.99235 0.99604577 0.99989015 1.0282968 0.99452543
1.0158325 1.0237457 1.0042053 1.0034207 1.0055081 0.9983386 1.0187979 1.0020914
1.0125889 1.0023941 1.0020909 1.0146348 1.0184785 1.012743 0.9969745 1.0043756
1.01277 1.0173899 1.0048366 1.0124868 1.0114193 1.0140289 1.0167806 1.0178651
1.0024086 1.0033783 1.0208848 1.007426 1.031095 1.0079929 1.0065541 1.0150443
1.016886 1.0010096 1.0109884 1.0045103 1.0028725 1.0125164 1.0004476 1.0211908
1.0129462 0.9999878 1.0279925 0.9961269 1.0068655 1.0035158 1.0208461 1.023646

bn1.bias f4 [128]
00000000: c594 d23b 6410 a2bb 6c4c 663b a6ad e03c
00000010: b947 1bba e1f6 c13a d1fb 193c 7c5b 07ba
00000020: a043 9dba 544a 823c 1b43 b23c 6cff 7c3c
00000030: 0aef b1bb 3f08 edb8 8011 983b 56e6 c73b
00000040: bb47 323c 52af 4f3c c387 1d3b 685d a13b
00000050: 77c1 803b c5cb ad3b fe7a 2c3c 1212 f33b
00000060: 2779 0f3b d95b 0abc 94f4 36bc fcbb b63b
00000070: c93f 823c 2c27 6d3a d848 013c c9e7 1e3a
00000080: 0f1c ab3c 9ff6 7bbb 822e d23b 70fe ca3b
00000090: d0e2 143c 2791 483b bf7b bd3b 754b 0cbb
000000a0: 1bcf d83a 809f 8b3c d1b4 c0ba 52ea 59ba
000000b0: 09ed 1dba 9aaa 863c 5c60 f83b 3ee8 5ebc
000000c0: afa1 d0ba 82f8 b63b b7a3 03bb 1807 323c
000000d0: 624a 333c c3ba 68bb 1ff4 693c ec1b 36bb
000000e0: 70a1 c43b 30c6 8e3a 0a59 803c 33a0 d83b
000000f0: 4f04 11bc 8cce 833c 0756 903c 1e51 0e3c
00000100: dcdf a03b fa56 3a3b 2ac8 36bc b218 99bb
00000110: c0dd 7abb d5a0 aaba e5fa 243a da97 3b3c
00000120: ea36 413b 506c 493c f438 2d3c f581 b9bb
00000130: 7272 353c 155f 0abb 1737 393c 75a4 a63a
00000140: 75ac 853c 8d00 c23b 39be 213c c73e 7f3a
00000150: ada3 53bb 892c a63a d988 8dbb db9e 373c
00000160: c346 32bc d81b cc3b aed3 693c c627 b7bb
00000170: 6f92 883c 3b0a 533c e97c 153c 8cfe 20bc
00000180: ed71 59b8 70ae d33b 86ac 20bc 5195 923c
00000190: acb9 1cbb 8bb4 e13c 8903 ea3a 0c7e 99bb
000001a0: d89a f4ba 624a ef3b b43e 703c e6b8 5d3c
000001b0: 5786 173c 0acb ed3b bbcb 2c3c 0404 bc3c
000001c0: 208b 4d3c 3736 d03a 1076 403b 4a7c 1abb
000001d0: 4ad6 b83b 18fb b0b8 0bf4 fa3b 17f7 ab3c
000001e0: e1ee 033c d13e 6c3c f5b7 0e3c fc2e 61ba
000001f0: 0e8e 58bc 3bb5 f0ba a7d8 6a3b 09e7 3d3c
0.006426426 -0.0049458016 0.0035140766 0.027426552 -0.0005923468 0.0014798307 0.009398417 -0.00051634735
-0.0011998303 0.015904583 0.021760514 0.015441757 -0.005430107 -0.000113025766 0.004640758 0.006100456
0.01088136 0.012676077 0.002403722 0.004924465 0.003929313 0.0053038322 0.0105273705 0.0074179256
0.002189228 -0.00844475 -0.01116671 0.0055766087 0.015899556 0.00090466696 0.007890902 0.00060617604
0.020887403 -0.0038446558 0.0064142356 0.006194882 0.009087279 0.0030604096 0.005782574 -0.002140728
0.0016541214 0.017043829 -0.0014702325 -0.00083128095 -0.00060243957 0.016438771 0.0075798463 -0.013605176
-0.0015917326 0.0055838237 -0.0020086595 0.010865949 0.010943027 -0.003551171 0.014279394 -0.0027787639
0.00600069 0.0010892805 0.015667457 0.006610894 -0.008851125 0.0160897 0.017619146 0.008686332
0.0049094986 0.002843319 -0.011156121 -0.0046721334 -0.0038279146 -0.0013017902 0.000629349 0.011449778
0.0029482194 0.01229389 0.010572661 -0.005661244 0.011074649 -0.0021113802 0.011304638 0.0012713807
0.016317585 0.005920476 0.009872013 0.00097368326 -0.0032293603 0.0012678067 -0.004319292 0.011207308
-0.010881129 0.006228905 0.01427166 -0.005589458 0.016671387 0.012880857 0.009124019 -0.009826314
-5.1842933e-05 0.0064600036 -0.009806758 0.017893465 -0.002391438 0.02755191 0.0017853837 -0.0046842154
-0.001866187 0.0073025683 0.014663387 0.013532853 0.009248338 0.00725687 0.01054662 0.022951134
0.012545377 0.0015885298 0.0029367246 -0.0023572617 0.0056407796 -8.439104e-05 0.0076584867 0.020991845
0.008052559 0.0144192735 0.008710851 -0.000859007 -0.013217462 -0.0018364558 0.0035834701 0.011590728

bn1.running_mean f4 [128]
00000000: b490 463e dc8b f4bd d90d e7bc c768 793e
00000010: 0b34 70bf 5de1 0abd 9698 053e bde7 8c3f
00000020: 7f96 11be f4b1 8fbe 4ab0 083e b1ec 4fbe
00000030: f92a 993f 0f0c e9bc 76f9 86bd b603 f03e
00000040: ece5 12bf 6366 0ebf d4d9 f73d ab69 933d
00000050: 1ece b1be e18e 13bf b382 013e 6d9c 2bbd
00000060: 9c9d c1be c29b 333c 47fa c2bd 5f5a 76bd
00000070: fd22 433f 7097 3ebe d5ad e2bd 87ee 04bf
00000080: a16d 05bd 0fd4 fabe 888f 033e cec6 303e
00000090: 5ad9 dabe ab08 4e3e cccc 253e 4c39 ed3e
000000a0: a758 5dbe 819c 2fbf c272 c1be 5627 843d
000000b0: bd93 453a 8259 7cbc b39f 873d 0e35 d83d
000000c0: 7d4f fc3e 20e7 ffbd c350 09bf f72a 4d3f
000000d0: d58d 103f 2cf6 8bbf 6886 ae3d 5630 19bf
000000e0: 17c6 56bf 0262 853c b7fb 30be 96c8 563e
000000f0: 8047 f9bd 8cde f0be f336 843e b4c9 06bf
00000100: d9f6 3fbf c427 cabe 28ca bcbc cf67 e8be
00000110: 73be 103d 1bc1 413f 51c8 a8be 8402 7bbf
00000120: 3365 773d 1490 663f 02d3 da3e 3fe8 243f
00000130: 3e1d c83d c150 bf3d f50c 09bf 1010 303e
00000140: fd64 e1be 088b 0fbf c2ef 423e bf8c 02bf
00000150: 0609 a6bf fcc5 1a3f 64a6 c0be d369 c93c
00000160: 93a8 513d 17a3 dfbf 79ff 963d b538 0bbd
00000170: 2036 b03d 21a2 49bf 5072 153c cf5b bfbe
00000180: 4196 0dbf 73a7 0b3e d302 59bf 4460 fcbe
00000190: 523c c0be d012 503e 277a 62bf a014 88bf
000001a0: c182 2fbf e0c7 2f3c 27de 10bf 9e14 193e
000001b0: e719 253e 48cc 463f af84 3c3e a6f7 0c3e
000001c0: 73b5 88bc d77e 91bf bf6e b7be 9857 1fbf
000001d0: 04ee 343f 1e26 8dbc 0732 7abe e115 62bf
000001e0: 920b 07bf c2c3 eb3e 2d66 ec3d 41ba 06bf
000001f0: be8e 173e b2ea 4fbf 868f 083e 7d37 ddbe
0.19391137 -0.119407386 -0.028204845 0.24356376 -0.9382941 -0.03390633 0.13046488 1.1008221
-0.14217566 -0.28065455 0.13348499 -0.20305134 1.1966239 -0.028448133 -0.0659055 0.4687783
-0.5738208 -0.5562498 0.12102094 0.07197889 -0.34727567 -0.5763989 0.12647514 -0.041897226
-0.3781556 0.0109624285 -0.09520393 -0.06014478 0.7622526 -0.18612456 -0.11068312 -0.51926464
-0.032575253 -0.48989913 0.12847722 0.17263338 -0.4274395 0.20120494 0.16191405 0.46332777
-0.2161585 -0.6859818 -0.37782866 0.06452815 0.00075369683 -0.0154022 0.06622257 0.105569944
0.49279395 -0.124952555 -0.5363886 0.80143684 0.5646642 -1.0934501 0.0852173 -0.5983938
-0.8389601 0.016282085 -0.17283522 0.20974955 -0.12171841 -0.4704479 0.25823173 -0.52651525
-0.74986035 -0.39483464 -0.023045614 -0.453917 0.035337877 0.7568528 -0.3296533 -0.98050714
0.060399245 0.90063596 0.4273911 0.6441688 0.097712025 0.093415745 -0.53535396 0.17193627
-0.4402236 -0.5607152 0.19036773 -0.5099601 -1.2971504 0.6045835 -0.37626946 0.024586594
0.051186156 -1.7471646 0.07372946 -0.033989627 0.086040735 -0.78763014 0.0091214925 -0.37374732
-0.55307394 0.13638096 -0.84769934 -0.49292195 -0.3754602 0.20319676 -0.8846764 -1.0631294
-0.6855889 0.010728806 -0.5658898 0.14949271 0.16123162 0.7765546 0.1840999 0.13766345
-0.016688084 -1.1366833 -0.3582668 -0.6224303 0.70675683 -0.01723009 -0.24433146 -0.88314635
-0.5275203 0.4604779 0.11542926 -0.5262795 0.14800546 -0.8121749 0.13336 -0.43206397

bn1.running_var f4 [128]
00000000: f096 a03f adc5 0f3f 0a5b 0a3f a202 993f
00000010: a045 b03f 6d88 143f e10b 6f3f 0845 ff3f
00000020: 9a45 613f d66a 3c3f d376 1a3f 6dc7 393f
00000030: f96a 1040 73cb 223f a7fe 7f3f 5a94 693f
00000040: bb16 8c3f 0bbc c93f a064 143f 26be 033f
00000050: 0bd3 813f bac0 5f3f 23ca ff3e 7c49 f73e
00000060: b652 133f 0fad 533f 174a e23e 8cb4 623f
00000070: 3ace c13f f3b7 503f d6d4 5e3f 51e4 ab3f
00000080: 7a53 4d3f c100 b23f 5a8c 693f cf32 5b3f
00000090: e4ff 913f b79b 503f a515 313f 96b2 4d3f
000000a0: 098a a83f 851d a53f 9e58 713f 7bbd a93e
000000b0: 5573 f13e 5132 553f 8be0 813f 30eb cf3e
000000c0: 1b43 d03f d5d1 173f 1ce2 723f c5bd ae3f
000000d0: a961 b63f 54d5 2740 4bfd 423f de69 5a3f
000000e0: 5e78 e13f 1698 233f 323f 243f 9a61 5b3f
000000f0: 7a52 8f3f 5ccf 703f d184 713f 6af8 3f3f
00000100: b4a3 833f 43e4 b43f 67f9 e23e bd6b 893f
00000110: b6d2 2a3f 9126 b93f eb4e 233f 206e b93f
00000120: 7926 8e3f c4c2 e93f fc66 553f fb75 ae3f
00000130: 8132 2d3f 18c9 433f 0d0d 473f 1d9e da3e
00000140: d8bc 9e3f 0fc0 7b3f 83cc 453f cb25 593f
00000150: a833 1340 8b7e 753f 2b61 053f e11d 263f
00000160: 939c e93e ce43 7140 8291 5c3f 3331 f83e
00000170: bbd6 013f 7b0d a23f 4c13 583f 153d 143f
00000180: 67a3 993f 9633 dc3e ab91 b33f 8612 a73f
00000190: 76ad 643f 1431 0e3f 974e c33f a68a f13f
000001a0: 1b59 953f 8aa9 2b3f 7437 6a3f ebe7 2d3f
000001b0: b51f 2d3f 8c5c 8c3f a6d8 863f 013e 263f
000001c0: b6ea dd3e 60f9 f43f 2987 4d3f 988e b03f
000001d0: d5c5 9f3f b135 2a3f 4c78 683f beea 2a40
000001e0: f2c3 d13f e9c1 163f 09aa 063f 9c8f 0040
000001f0: 7d61 363f 1e80 e53f a574 143f 243e 2d3f
1.2546062 0.56161004 0.54045165 1.1953928 1.3771248 0.5802067 0.933775 1.9942942
0.8799683 0.7360052 0.6033756 0.72569925 2.256529 0.6359169 0.99997944 0.9124199
1.0944437 1.5760511 0.5796604 0.5146202 1.014253 0.8740345 0.49958906 0.48298252
0.5754808 0.8268594 0.4419715 0.8855674 1.514106 0.81530684 0.8704351 1.3429052
0.802055 1.390648 0.91229784 0.856244 1.1406217 0.814876 0.6917365 0.80350626
1.3167125 1.2899634 0.94275844 0.33152375 0.47158304 0.832799 1.014665 0.4060912
1.6270479 0.59304553 0.94876266 1.3651663 1.4248554 2.6223955 0.76167744 0.8531779
1.7614858 0.6390394 0.6415893 0.85695803 1.1197045 0.94066405 0.94343287 0.74988425
1.0284333 1.413216 0.44330904 1.0736004 0.6672777 1.4464895 0.63792294 1.4486732
1.1105491 1.8262563 0.83360267 1.3629755 0.6765519 0.7647872 0.7775429 0.42698756
1.240138 0.98339933 0.77265185 0.8482329 2.3000278 0.95896214 0.5210139 0.6488934
0.4562727 3.7697635 0.8615953 0.48475036 0.5071828 1.2660364 0.84404445 0.57905704
1.2002991 0.43008107 1.4028829 1.3052528 0.8932718 0.5554364 1.5258359 1.8870437
1.1667818 0.6705557 0.91490865 0.67932004 0.67626506 1.0965743 1.0534866 0.6493836
0.43343133 1.9138603 0.80284363 1.3793516 1.2482249 0.66488177 0.9080856 2.6705775
1.6387923 0.58889633 0.52603203 2.0087652 0.71242505 1.7929723 0.57990485 0.67672944

conv2.nn.0.weight f4 [128, 128]
00000000: 4dd4 ba3c bb4e ac3d 0355 853d 36b1 e2bc
00000010: da0b 1abd a2da 8d3d ad58 ad3d e22f 1a3d
00000020: f867 423d 9639 5fbd 7177 a8bd a972 37bd
00000030: 6aac 79bd 9a59 3b3d 64b9 923d f118 aa3d
00000040: 0087 50bd d4c1 b03d d849 90bd 4a62 9b3d
00000050: 80b6 88bd 06b8 8bbc 1a51 57bc da04 453d
00000060: 63e5 1abd 632c 04bd 81f9 8dbd 5598 a43d
00000070: 4f85 2bbd 854c af3d eb30 14bc 1e1b 573d
00000080: 1ed1 9f3d 6283 373d 9dce a2bc 6c07 c6bc
00000090: 6f93 593d 9099 2dbd a38f 43bd 5bc6 0d3d
000000a0: b594 74bd 9e1b b03d f22b a63d 3248 693d
000000b0: fa73 56bd 01cd c9ba 6955 383d 4765 9abd
000000c0: 2fb3 2bbd 3984 993a 360b 103d 68a0 423d
000000d0: d955 493d bc5b 4f3d 7a69 a4bc 5895 c63a
000000e0: 9e81 8bbd 7c38 5a3c 9154 8cbd 6d88 39bd
000000f0: e6f9 4d3d 9757 0dbd 6746 acbd 336d 7fbd
00000100: fccb f73c 4ac9 083d 306e 863d 4af2 74bd
00000110: 96f3 773d 8e3a 593d 1866 84bd dc37 9e3d
00000120: c4ef e4bb 5f8c 6fbd a4ac 6bbd 2ff6 013d
00000130: a297 033d 9754 efbc 0acc d1bc 216c 2b3d
00000140: 37b9 413d 5da1 53bd 51b7 a83d d90b a03d
00000150: 06e7 bcbb 7133 35bd ce9d 1dbd 8244 70bc
00000160: 5857 a1bc f588 893c 52a2 653d 1f69 6cbd
00000170: 02d4 bfbd 1c81 003d 43cd bbbb 7613 86bd
00000180: 029c c13a 6b23 a73d 06ac d73b 3510 803d
00000190: 9ff7 f5bc 0c9e ef3c 9426 813d 0856 2eba
000001a0: e050 c2bd 07f7 033d 9a77 2cbd 9bce 93bd
000001b0: 3247 e73c 1c4f 0e3d 0f3c 703c ec29 d1bc
000001c0: 1a00 34bd aac1 723d ab3e 30bc a6ef 71bb
000001d0: 3d20 ce3c e3b7 763d 3470 d2bc 84c6 163d
000001e0: 0c63 f23b 7d6c d13c 6489 71bc 9d01 933d
000001f0: 0c90 7cbc 45fb 1f3d 9fad b0bd 39fb 1fbc
00000200: 9982 b8bb caa8 103d c47f 13bd cde1 b63c
00000210: 48cd 5a3d 9b30 8b3d 1b62 843d 6f25 89bc
00000220: 4b2e 0fbb 7763 97bd 7956 c2bc 809f 67bd
00000230: c22f debc 1368 b8bc 52a1 b2bd aecb 51bd
00000240: f0d3 0cbd 7086 9c3c a6c1 80bd 79d0 d23c
00000250: a88e 26bd 53f0 48bd 8b5d 18bd d5d9 70bd
00000260: d47e 9f3c 7671 d03a 32ab a23a 0a23 a7bd
00000270: ea51 a4bd ee90 123d daf2 893d a300 b5bd
00000280: d2c3 1f3d 749a 09bd 5c8c 3dbd 44be 4cbc
00000290: 1ee2 713d c400 ab3d 9a18 bbbd b182 983d
000002a0: 5c54 a3bd d515 8bbd 5a78 2cbd 0e4b 143d
000002b0: 35df 363c a4cb a2bd df60 8c3d 90f9 8d3d
000002c0: 8bcf 87bd a13c 84bd f5f6 5d3d 4a70 fc3c
000002d0: 7da4 863d ce7b a0bd 3807 77bd ffc2 9c3c
000002e0: 6263 823d 8440 73bd 3813 cb3b a720 9cbd
000002f0: 682c 1cbc 8e6a b6bd f72c 513d ba93 01bd
00000300: d274 ab3d b18a 953d c338 a63d 483f 883d
00000310: a130 22bd 0513 18ba fc8b 6f3d e209 93bd
00000320: 343c fc3c 5c9f 8bbd e383 98bb 4ffe a13c
00000330: d3e4 5fbd 0014 893d 9663 383b da2f 233d
00000340: 770b 933d ada1 aa3d 7a9f ca3c 039f b1bd
00000350: d86f 053d 2768 683d c9bd c13d 81d2 e6ba
00000360: 3aca 053d 76f1 46bd b8fa a43d 4ad0 873d
00000370: d8e1 9abd 217e 10bd d313 8ebd dca6 ad3d
00000380: 0681 aebc 7ddf a63d de3c b53d 8419 193d
00000390: 435a 4e3c 0d80 0b3a c072 7cbb 34cd 40bc
000003a0: 153f 47bc 341f 7f3c 37d6 c4bd ba03 89bd
000003b0: 8f82 afbc 9973 003c caa2 0fbd 8a6b 79bb
000003c0: 7f46 b53c c9ea ab3d e0fc 333d 2680 e3bc
000003d0: 9ad5 7e3d b223 9fbd 5f11 763c b0f9 7d3c
000003e0: 88a9 36bd 9606 6bbc 8a07 19bd 8160 39bd
000003f0: 4789 313d ef0d 0d3b 4fe4 9a3d e2a5 a33d
0.022806311 0.08413454 0.06510355 -0.027672391 -0.03760896 0.069264665 0.08464179 0.03764332
0.047462434 -0.054498278 -0.08225907 -0.044787083 -0.060955442 0.045739748 0.07164267 0.083055384
-0.050909996 0.0863072 -0.070453346 0.075871065 -0.06675434 -0.017055523 -0.013141895 0.04810033
-0.037816416 -0.032268893 -0.06932355 0.080368675 -0.04187518 0.08559517 -0.009044866 0.052516095
0.07803558 0.04480303 -0.019873912 -0.02417346 0.05311912 -0.042382777 -0.047744405 0.034612995
-0.05971213 0.085990176 0.08113851 0.056953616 -0.052356698 -0.0015396179 0.04500333 -0.07538848
-0.04191893 0.0011712379 0.03516694 0.047516257 0.049154136 0.050624594 -0.020069826 0.0015150709
-0.06811832 0.013319131 -0.06852067 -0.04529612 0.05028715 -0.03450736 -0.08411866 -0.06236
0.030248635 0.03339509 0.06563985 -0.059801377 0.060535036 0.053034358 -0.06464785 0.07725498
-0.00698659 -0.058483478 -0.05753769 0.03172892 0.03212703 -0.02921514 -0.025609989 0.041851167
0.047295775 -0.05166756 0.0823809 0.0781476 -0.005764845 -0.04423851 -0.038480572 -0.014664771
-0.019694969 0.016788939 0.056063004 -0.05771744 -0.09366609 0.03137313 -0.005731256 -0.06546681
0.0014771225 0.08161052 0.006581786 0.06253091 -0.030025302 0.029250167 0.06306186 -0.0006650393
-0.09488082 0.032218006 -0.04210625 -0.07217141 0.02823219 0.034743413 0.014662757 -0.025532685
-0.04394541 0.059266724 -0.010757129 -0.0036916523 0.025161857 0.06023396 -0.025688268 0.036810413
0.007397061 0.025564427 -0.014742229 0.07178042 -0.015415203 0.03905799 -0.086268656 -0.009764486
-0.005630803 0.03531722 -0.03601052 0.022324467 0.053418428 0.0679638 0.06464025 -0.016741483
-0.002184766 -0.07392018 -0.023722874 -0.056548595 -0.027122382 -0.022510564 -0.08722176 -0.051219635
-0.034381807 0.019107074 -0.062869355 0.025734173 -0.04066339 -0.049057316 -0.037198585 -0.05880149
0.019469656 0.0015902955 0.0012410639 -0.0816098 -0.08023436 0.035782747 0.067357734 -0.08838012
0.03900511 -0.033594564 -0.046276435 -0.012496535 0.059053533 0.083497554 -0.09135552 0.074468024
-0.07975075 -0.067912735 -0.042106964 0.03620439 0.011161615 -0.079489976 0.06854414 0.06932366
-0.066313826 -0.064568765 0.054190595 0.030815262 0.065743424 -0.07836114 -0.06030962 0.01913595
0.06366612 -0.0593877 0.0061973594 -0.076234154 -0.009532072 -0.089070424 0.051068272 -0.031635024
0.08371891 0.07301844 0.08116295 0.06652695 -0.039597157 -0.0005801174 0.05848311 -0.07179619
0.030790426 -0.06817505 -0.004654394 0.019774584 -0.054661583 0.06693268 0.002813553 0.039840557
0.07179921 0.083316185 0.024734247 -0.08672907 0.032577366 0.056739952 0.09460027 -0.0017610342
0.03266356 -0.04857012 0.08055633 0.06631525 -0.075626075 -0.035276536 -0.06937375 0.084790915
-0.021301758 0.08148096 0.088495 0.03737785 0.012594762 0.000532151 -0.0038520545 -0.011767674
-0.012161036 0.015571404 -0.09611171 -0.06690164 -0.02142456 0.007840061 -0.035067357 -0.0038058483
0.022128342 0.08394391 0.043942332 -0.027771067 0.062215425 -0.0777048 0.01501879 0.015501425
-0.04459527 -0.014344832 -0.037360705 -0.04525805 0.04334381 0.0021523198 0.07563078 0.07990624

conv2.nn.0.bias f4 [128]
00000000: 8ba5 413d 3616 32bd 5f5f c1bc aae8 fb3c
00000010: 3541 943d 4d73 6ebd 1c9d ac3d 6d02 5f3d
00000020: c32d c83d 2be0 603c d2f6 87bd c9fc 19bd
00000030: 40b7 463d 192e 14bc e70b 673d 5f27 97bc
00000040: 6fb7 b9bd 7951 0d3d de26 41bd 4531 35bc
00000050: b588 36bd 67fb 003e 8768 7dbd a160 4cbd
00000060: 9f3d c4bb 3a84 45bd d91d b63c ee9e b93d
00000070: 8c58 cb3d c29a 8d3d b8d1 8d3c 522e ac3d
00000080: 7e64 5b3d c54d 793d 90c7 81bd 110d ccbd
00000090: 84bf c13d 42b0 ce3b bdbd 3dbd 511a 4d3d
000000a0: ffcf 0cbd 15c4 9a3d 9716 893c 4531 de3d
000000b0: f2f4 09bc 8a0b 0cbc ec74 87bd 88bd 0d3c
000000c0: 9e2e 963d 2cf8 27bd e2a7 35bc 2e01 1f3d
000000d0: 1149 653c c332 f13b ea41 693b 79e1 11bd
000000e0: 0b60 26bd a07b b63d d2df 98bc 93e6 493d
000000f0: 7ccf c6bc deb9 593d fc0d d1bb 8719 843d
00000100: 6dbc 8e3d 4aff 31bd dc4c 8d3d ba34 b7bc
00000110: a972 9cbc d622 943c 0df1 c7bd 6112 f8bb
00000120: 96b6 8a3d 4025 9d3d 5299 0abd 9319 12bc
00000130: 3b6a 7d3c 5713 a43d 6153 3bbd 3bbb 1bbd
00000140: cff3 1f3b 7a9e b73c 3c86 c5bc ddf9 673c
00000150: 7d93 563b 6616 c83d 8e8e 283d 0435 a73c
00000160: 1750 853b 5381 1d3d 69f6 2fbc 94ff f33c
00000170: aff3 bdbd a2f5 85bd effa c3bc 4e82 6b3d
00000180: 55f4 de3d 988a 963d f41f b93d 21fe 5c3b
00000190: 9733 5e3d c35f a13d 7680 5ebd 5dd3 4abc
000001a0: ed1a a03d bb1f 993c 0ed5 003d b4be 923b
000001b0: b42d 083c 684e d93d 81e8 1b3d c01d c23d
000001c0: 7a0c a1bd a14a a4bd 47ad 30bd b562 8c3d
000001d0: 8110 61bd 1d10 993d 8c73 9e3d a4ef 74ba
000001e0: 3030 4bbd f468 88bc 89f8 83bb 23d0 d23c
000001f0: e30f 6f3d ce12 9abd 2bcb 58ba 562f 503d
0.047277015 -0.043478213 -0.023605047 0.030750591 0.07239 -0.05821543 0.08428404 0.054445673
0.09774353 0.013725321 -0.06638874 -0.03759459 0.048514605 -0.009044194 0.056407835 -0.01845139
-0.0906819 0.034501527 -0.047156207 -0.01105911 -0.044563968 0.12595902 -0.061867263 -0.04989684
-0.005988791 -0.048221804 0.02223103 0.090635166 0.09928998 0.06914283 0.017311916 0.084072724
0.053562634 0.060865182 -0.06336892 -0.0996343 0.09460357 0.0063076327 -0.046323527 0.050073925
-0.034378048 0.07556931 0.016734404 0.10849241 -0.008420216 -0.008547673 -0.06614098 0.008651145
0.0733311 -0.04100816 -0.01108739 0.038819484 0.013994471 0.0073607876 0.0035592266 -0.035615418
-0.040618937 0.08910298 -0.018661413 0.04929216 -0.024268858 0.053155772 -0.006379841 0.064501815
0.06969533 -0.043456353 0.068994254 -0.02236401 -0.019097643 0.018083017 -0.09762774 -0.0075705503
0.06773107 0.076731205 -0.033837624 -0.00891723 0.015467222 0.08011501 -0.045733813 -0.038020354
0.0024406796 0.022414435 -0.02411186 0.014158693 0.0032741718 0.09769897 0.041151576 0.020411022
0.0040683853 0.03845341 -0.010739901 0.029784955 -0.092749946 -0.06540991 -0.023923365 0.057497315
0.108864464 0.073506534 0.09039298 0.0033720809 0.05424842 0.07879593 -0.05432173 -0.0123794945
0.07817636 0.018691888 0.031453185 0.0044783 0.008311678 0.10610658 0.03806353 0.094783306
-0.07863708 -0.08022047 -0.043134 0.06854764 -0.05494738 0.074737765 0.077368826 -0.00093435706
-0.049606502 -0.016651608 -0.0040274304 0.025734013 0.05836476 -0.07523118 -0.00082700205 0.050826393
